learning_environment/checkpoints/dqn_ticket_pricing.pt (torch, 301141 bytes, 24 tensors)

net.0.weight f4 [128, 5]
-3.107433 -0.40049732 -1.7416029 0.18853304 -0.62194604 -0.41496843 0.06236396 -0.4905008
-0.42182782 -0.05432765 0.35046706 -0.78534186 -7.9922876 0.41544518 0.99662995 -0.38637686
-0.03142331 -0.47086546 -0.11134036 -0.004176682 0.44357058 0.051475387 -0.52599823 -0.8920009
0.021727754 -0.04521748 0.078410454 -0.050638434 -0.12605795 0.08082506 -1.080621 0.17595571
-0.4140665 -0.42711994 -0.012572781 -1.3459463 -0.6978041 -2.1546006 -0.6577001 -0.038027562
-1.676918 -0.37786806 -0.92559266 -0.46501687 -1.6772995 -0.0028129518 -0.25173458 0.09620035
0.21442723 -0.41284943 1.3180263 -0.687871 1.0475076 -0.061350007 0.76035464 0.2162737
-0.88039166 -3.422813 -0.7710434 0.56761074 -3.2433975 -0.81173354 1.3950977 -1.5728693
-0.5584588 -3.5985358 -0.27566662 0.5210004 0.8140203 0.26323432 1.1604494 -0.80312246
-6.287655 -1.4492087 -1.1487641 0.16214256 -0.3221226 -0.24660285 -0.539283 0.32399482
-1.7164195 0.24663833 -4.498959 -2.3163722 -3.5477114 -3.2224066 -0.715156 -0.17339115
0.09280945 -0.10941948 -1.2785308 -1.507298 -1.9058043 -0.9919633 0.51547 -0.4072885
0.049210075 -1.1400977 -0.517173 -0.4780768 -0.9666829 -0.6632969 -1.6848917 0.009351147
0.3809501 -1.4175539 0.0030060306 -0.35507616 -0.22101413 0.17430162 -3.877451 0.062422965
0.7552247 0.5342288 0.6454689 -1.9964708 -0.37756863 0.8220532 -0.44328737 -1.5394614
-0.05815487 -0.33316752 0.35448807 -0.30308333 -0.22097585 -0.3907139 -0.1779862 -0.389831
0.017812133 0.21624643 0.94885427 -0.04020401 -0.10792585 -0.09661369 -0.64855343 -0.10528904
-0.40088204 -0.3831839 -0.24298736 -0.19040492 -2.341823 -0.417453 -2.8094175 1.0065333
-1.206617 -3.6266816 -0.3063183 -2.3168914 1.301342 0.5179302 -2.7263322 -0.16493683
0.6156128 -0.09264393 0.2495115 -0.70084685 0.008096218 -2.6482656 -0.29688582 0.4757884
0.5183499 -0.30480433 -2.0688665 -0.22717029 -0.27198726 0.17573076 -0.21108237 -0.08325726
-0.17575568 -0.16594559 -1.0086191 -0.06582069 -1.7529796 -0.9686034 -1.797243 -0.17291632
-0.16012251 -3.7582517 0.7729717 -0.6400871 -1.6506599 0.31614557 1.2212322 -2.310025
-0.34816197 -0.29262346 -0.4729833 -3.0283563 0.1536155 -0.2702613 1.5395416 0.08197315
-3.1638596 0.42359293 0.0069262544 -0.4239347 -0.15697664 -0.17937493 -0.25317928 -0.13086483
-2.2231243 -1.2057027 0.5366325 -0.52691454 0.2133856 -4.646856 -0.26162046 -2.5947287
1.1258135 -1.8872354 -2.3417974 -0.044486456 -1.1665725 -0.018834325 -0.5104428 -0.16321075
-0.40571132 -6.5147057 -1.1757231 -0.6544332 -0.053577073 0.007951771 -0.34504995 -0.02753638
-0.055907402 0.086280055 0.015913894 0.024949845 -0.066857845 0.043601062 -4.738002 -0.21432436
1.7493424 0.59268534 1.2822679 -1.9105008 -0.12578565 -1.5286461 -1.095044 -0.5375164
-11.463613 0.13222983 1.5087907 0.061296377 2.5416906 -3.896818 0.30602264 0.4753724
0.6167683 0.43856683 -9.35568 0.367917 -0.2776584 -0.93141544 -2.9344258 -1.379155
00000000: 2fe0 46c0 fc0d cdbe d8ec debf ce0e 413e
00000010: db37 1fbf be76 d4be 5a71 7f3d ec22 fbbe
00000020: d1f9 d7be ac86 5ebd 6b70 b33e 2a0c 49bf
00000030: d2c0 ffc0 3bb5 d43e 2423 7f3f 30d3 c5be
00000040: bbb5 00bd 4715 f1be 6a06 e4bd 8cdc 88bb
00000050: af1b e33e dbd7 523d d2a7 06bf 2c5a 64bf
00000060: 67fe b13c f735 39bd a995 a03d 3f6a 4fbd
00000070: 5615 01be 9c87 a53d ca51 8abf bc2d 343e
00000080: 8600 d4be 77af dabe 11fe 4dbc f847 acbf
00000090: 4aa3 32bf fae4 09c0 095f 28bf cac2 1bbd
000000a0: 40a5 d6bf ec77 c1be a4f3 6cbf b116 eebe
000000b0: c0b1 d6bf 8059 38bb 5be3 80be b004 c53d
000000c0: d092 5b3e 0061 d3be 16b5 a83f 5018 30bf
000000d0: bb14 863f 254a 7bbd 9aa6 423f da76 5d3e
000000e0: 5961 61bf 5e0f 5bc0 1a63 45bf f04e 113f
000000f0: d393 4fc0 c5cd 4fbf 9092 b23f c853 c9bf
00000100: 28f7 0ebf 694e 66c0 2d24 8dbe 4860 053f
00000110: a263 503f a6c6 863e 9b89 943f 6f99 4dbf
00000120: 7834 c9c0 ac7f b9bf b40a 93bf b308 263e
00000130: 41ed a4be 7585 7cbe 730e 0abf a6e2 a53e
00000140: a2b3 dbbf c28e 7c3e 79f7 8fc0 713f 14c0
00000150: b40d 63c0 e93b 4ec0 7714 37bf 738d 31be
00000160: e212 be3d 5217 e0bd e6a6 a3bf 24ef c0bf
00000170: 65f1 f3bf 4ff1 7dbf d8f5 033f 1e88 d0be
00000180: 8190 493d b9ee 91bf 7365 04bf 7bc6 f4be
00000190: 8878 77bf d3cd 29bf 88aa d7bf 8e35 193c
000001a0: e40b c33e 6872 b5bf d300 453b 8bcc b5be
000001b0: 8751 62be 207c 323e 2828 78c0 39af 7f3d
000001c0: 6856 413f 38c3 083f 733d 253f 5b8c ffbf
000001d0: ad50 c1be 1472 523f 90f6 e2be 120d c5bf
000001e0: cd33 6ebd ef94 aabe 767f b53e bd2d 9bbe
000001f0: 7e47 62be a70b c8be 0442 36be ee97 c7be
00000200: c0ea 913c b46f 5d3e 1de8 723f f6ac 24bd
00000210: 3a08 ddbd 66dd c5bd 9907 26bf c8a1 d7bd
00000220: 6940 cdbe ae30 c4be aed1 78be 82f9 42be
00000230: 6ee0 15c0 66bc d5be 7fcd 33c0 15d6 803f
00000240: 6d72 9abf 8d1b 68c0 c1d5 9cbe f347 14c0
00000250: 6092 a63f 1397 043f 3a7c 2ec0 33e5 28be
00000260: cd98 1d3f 1abc bdbd f17f 7f3e b36a 33bf
00000270: 00a6 043c 2f7d 29c0 6b01 98be 8a9a f33e
00000280: 94b2 043f 500f 9cbe 4f68 04c0 549f 68be
00000290: ea41 8bbe c4f2 333e fa25 58be c882 aabd
000002a0: 4cf9 33be a4ed 29be 6e1a 81bf ffcc 86bd
000002b0: a361 e0bf 64f6 77bf 0f0c e6bf fa10 31be
000002c0: 28f7 23be 3287 70c0 79e1 453f c0dc 23bf
000002d0: d348 d3bf d5dd a13e 5651 9c3f 73d7 13c0
000002e0: 4942 b2be bed2 95be de2a f2be 97d0 41c0
000002f0: 624d 1d3e b05f 8abe b30f c53f 8ae1 a73d
00000300: ad7c 4ac0 2ce1 d83e a2f5 e23b f80d d9be
00000310: 7cbe 20be 10ae 37be b7a0 81be 6e01 06be
00000320: ab47 0ec0 7754 9abf bf60 093f dfe3 06bf
00000330: c181 5a3e 0bb3 94c0 1ef3 85be 0910 26c0
00000340: a81a 903f ee90 f1bf 02e0 15c0 6e37 36bd
00000350: 3f52 95bf 714a 9abc 61ac 02bf b820 27be
00000360: 65b9 cfbe 7878 d0c0 187e 96bf ef88 27bf
00000370: a273 5bbd 2548 023c 63aa b0be f993 e1bc
00000380: 29ff 64bd 99b3 b03d db5d 823c 9e63 cc3c
00000390: c4ec 88bd 0797 323d b69d 97c0 d877 5bbe
000003a0: 74ea df3f 3aba 173f 5b21 a43f 4a8b f4bf
000003b0: f4cd 00be adaa c3bf 672a 8cbf ad9a 09bf
000003c0: f56a 37c1 4267 073e 0e20 c13f e911 7b3d
000003d0: 0fab 2240 7765 79c0 00af 9c3e 0364 f33e
000003e0: 87e4 1d3f d58b e03e deb0 15c1 9e5f bc3e
000003f0: 3e29 8ebe 3e71 6ebf a2cd 3bc0 2788 b0bf

net.0.bias f4 [128]
2.3852649 -0.21902433 -1.2330819 -0.013351074 -0.7024322 -0.4685938 -0.6434085 0.24609993
2.4943724 -0.31191218 -2.9015481 -0.4791774 1.6514511 2.9702845 -0.8520947 -0.3925338
2.9133396 2.5547493 -0.06668521 -0.20298713 -0.18855017 -0.21972641 1.2703408 0.6935816
-0.303926 -0.3480698 -0.9269851 0.09779954 1.6618531 1.9241667 1.7774435 -0.48627537
-0.4568155 -0.41684696 2.105135 3.0014014 -0.57536894 -0.020665849 -2.236956 -0.035997868
-0.3884153 1.6532677 0.01896448 0.18921557 -0.11144333 -0.20426215 1.1290779 2.4687526
1.9710954 1.3843784 0.52686507 -0.040460017 0.3941491 -1.05464 2.128978 -1.5956941
-0.17949742 -0.2850426 -0.37923187 -0.6658841 -0.23185848 -0.037401207 -1.5683757 2.538978
-0.92883116 0.7511248 -0.65668803 -0.077163815 -0.5096279 -0.08230847 -0.37631628 -0.8335518
-0.36408263 1.924912 -0.33428842 -0.47503656 -0.9643889 -0.937687 -0.6517577 -0.51018476
1.9131589 -0.3407211 -0.2843296 -0.099390276 0.013638824 -0.20771044 0.47208732 0.173755
-2.0850513 -0.5752691 -1.1084265 -0.48542458 -0.85375464 -0.27773473 1.2203876 1.6103808
1.2211661 1.7835605 2.8699234 0.9084697 -1.1233157 0.84274626 -2.8556643 -1.2922794
-0.40847048 -0.4532959 2.7332282 -0.11246381 -0.33441764 -0.44011956 0.41870537 1.4105228
-0.19399375 -0.18313625 -0.11436969 1.6254717 -0.3620229 -0.7860291 1.5217519 0.047727518
0.7125002 -0.4135574 1.9123678 0.07294141 -0.30581236 -0.3485572 -0.40690538 -0.34051237
00000000: 2ea8 1840 ea47 60be a1d5 9dbf 77be 5abc
00000010: 99d2 33bf 87eb efbe 6bb6 24bf 9f01 7c3e
00000020: cca3 1f40 f4b2 9fbe f7b2 39c0 bd56 f5be
00000030: c062 d33f 2419 3e40 e122 5abf 31fa c8be
00000040: 2874 3a40 0381 2340 4192 88bd dcdb 4fbe
00000050: 4c13 41be f6ff 60be 879a a23f 908e 313f
00000060: 309c 9bbe 3436 b2be e54e 6dbf 204b c83d
00000070: 9ab7 d43f 184b f63f 4583 e33f 16f9 f8be
00000080: b9e3 e9be f76c d5be 88ba 0640 f616 4040
00000090: 614b 13bf 6d4b a9bc 492a 0fc0 8072 13bd
000000a0: 5fde c6be 479e d33f 665b 9b3c bac1 413e
000000b0: 673c e4bd 192a 51be a085 903f 0b00 1e40
000000c0: db4c fc3f 5033 b13f a1e0 063f 67b9 25bd
000000d0: e9cd c93e 72fe 86bf 2d41 0840 b43f ccbf
000000e0: 2cce 37be 1bf1 91be ae2a c2be 6177 2abf
000000f0: 4f6c 6dbe 0232 19bd 89c0 c8bf 9e7e 2240
00000100: e1c7 6dbf b749 403f b51c 28bf 1008 9ebd
00000110: f976 02bf 5891 a8bd 87ac c0be a763 55bf
00000120: 0a69 babe 8463 f63f da27 abbe fe37 f3be
00000130: 31e2 76bf 410c 70bf 98d9 26bf 789b 02bf
00000140: 64e2 f43f ff72 aebe a693 91be 218d cbbd
00000150: 6075 5f3c 0cb2 54be 6eb5 f13e d5ec 313e
00000160: 7b71 05c0 d644 13bf ebe0 8dbf 9289 f8be
00000170: aa8f 5abf 3f33 8ebe a935 9c3f f520 ce3f
00000180: 2c4f 9c3f b64b e43f d3ac 3740 7891 683f
00000190: cfc8 8fbf 38be 573f 34c3 36c0 6969 a5bf
000001a0: 0b23 d1be 6616 e8be 36ed 2e40 6d53 e6bd
000001b0: ca38 abbe 5a57 e1be 8d60 d63e 038c b43f
000001c0: 4ca6 46be 1288 3bbe a83a eabd 750f d03f
000001d0: 115b b9be 3439 49bf c4c8 c23f ee7d 433d
000001e0: 6a66 363f ccbd d3be 78c8 f43f 4e62 953d
000001f0: 7093 9cbe 1776 b2be e755 d0be a357 aebe

net.2.weight f4 [128, 128]
-0.048582844 -0.0070758234 -0.0114666065 -0.100525536 -0.03947818 -0.10377849 -0.0578744 -0.011976018
-0.07707351 0.046667673 -0.0430937 0.058272906 -0.041844327 -0.11387947 0.050613377 -0.069790006
-0.02373651 -0.09433066 -0.03723879 -0.11536575 0.040636815 0.038555607 -0.071004756 -0.07151341
-0.07613849 0.056050695 -0.07587697 0.041877918 0.0074144467 -0.06155331 -0.032497853 -0.003100273
-0.05096745 0.036460154 0.01665585 0.016549693 -0.081759356 -0.08126048 0.00070707226 0.05502636
0.022786492 0.09345288 0.043887924 -0.03764298 -0.06582439 -0.10359492 0.01763031 -0.11814742
-0.022868076 -0.038211882 -0.08964933 -0.091136165 -0.114307985 -0.0107465545 0.017205741 0.034873206
0.023017008 0.04714142 -0.00557784 -0.073832 -0.08692883 0.030784769 -0.05029462 -0.03283272
0.062165394 -0.00048118242 -0.0895448 0.025722336 0.00021032244 -0.030765796 -0.0615125 -0.014411334
0.053544976 -0.01914606 -0.014348216 0.06874167 -0.068982825 0.05371834 0.022861736 -0.013952925
-0.012470577 -0.0489087 -0.04317189 0.036431182 0.061617963 -0.08224376 -0.091548346 0.0123492265
-0.124260396 0.053936698 -0.0795841 -0.044383835 -0.10312422 0.0064040106 -0.044682752 -0.13024655
0.022448152 0.011217298 -0.18294111 -0.105401285 -0.05449568 0.07082342 0.023888083 -0.06493031
-0.056135945 -0.055478513 0.001951727 0.023397868 -0.0846997 0.065840565 -0.055534985 0.046339076
-0.22733946 -0.1427601 0.055722337 -0.083868384 -0.006535977 0.05287483 0.010494097 -0.020798666
-0.025895732 0.04230324 -0.04596512 0.06989977 -0.047781754 -0.024193864 -0.0077325553 -0.062704004
0.005274499 -0.36988688 -0.11584563 -0.029561227 -0.038932957 0.036267582 -0.03298158 -0.55981183
-0.37380895 -0.08276799 -0.08347519 -0.12164834 0.055122387 -0.104813345 -0.0674557 -0.16906333
-0.23444569 -0.1018797 -0.063674405 -0.25374672 -0.07906513 0.08724789 0.00152916 -0.1391105
-0.038048424 -0.008437738 -0.20058118 0.06532196 -0.025473826 0.04427886 -0.14905185 -0.09726964
-0.3027111 -0.0856674 -0.08939911 -0.40929985 -0.1733963 -0.60069454 -0.013065781 -0.019104786
-0.05279986 -0.18984185 -0.1748404 -0.015101498 -0.06919962 -0.006012858 -0.04636493 -0.1394214
-0.0963597 -0.24496396 0.16018514 -0.0837822 -0.020609202 -0.112266846 -0.0951646 -0.032084506
-0.62457603 -0.10596706 -0.067171685 -0.29851764 0.012632623 -0.13248089 -0.28533542 -0.18023743
-0.06296345 -0.1397108 -0.47808117 0.025664572 0.049370624 -0.12276434 0.07152706 -0.41309237
-0.13865945 -0.4580069 -0.015133344 -0.049443416 -0.27967334 -0.040334634 -0.059937336 -0.2992638
0.09223606 -0.04862291 -0.027224872 -0.07323641 -0.0070615336 -0.025841432 -0.091781154 -0.07281678
-0.13786401 0.038995538 -0.2156293 -0.093324326 -0.10996329 -0.034388203 -0.2908362 -0.11088544
-0.081635736 -0.111960754 0.19341299 -0.07847448 -0.08046132 -0.2322695 -0.5756865 -0.20561774
-0.050497655 -0.083770216 0.12774861 -0.05440845 0.062751 -0.08582561 -0.10665655 -0.4867732
-0.08235165 -0.118528105 -0.10074389 -0.10091754 0.06746281 -0.14513284 -0.029525954 0.013714789
-0.24756517 0.003324099 -0.1054809 -0.08497542 0.049763538 -0.21456954 0.027000166 0.028567143
00000000: cefe 46bd 4fdc e7bb 6fde 3bbc 55e0 cdbd
00000010: dfb3 21bd d189 d4bd b50d 6dbd 0f37 44bc
00000020: b7d8 9dbd 9a26 3f3d 0583 30bd 92af 6e3d
00000030: f564 2bbd a439 e9bd f94f 4f3d 10ee 8ebd
00000040: 1273 c2bc 6f30 c1bd b487 18bd e144 ecbd
00000050: ca72 263d 7cec 1d3d f16a 91bd 9f75 92bd
00000060: 7fee 9bbd 6a95 653d 6365 9bbd 2e88 2b3d
00000070: e3f4 f23b 531f 7cbd 781c 05bd f32d 4bbb
00000080: 3fc3 50bd 3e57 153d d971 883c 3993 873c
00000090: 7371 a7bd e56b a6bd d15a 393a 5263 613d
000000a0: bdaa ba3c 3964 bf3d d3c3 333d 872f 1abd
000000b0: f0ce 86bd 9329 d4bd 716d 903c 46f7 f1bd
000000c0: d555 bbbc 1084 1cbd 119a b7bd 99a5 babd
000000d0: 4e1a eabd 5112 30bc 0ef3 8c3c 35d7 0e3d
000000e0: 2a8e bc3c 5d17 413d 50c6 b6bb 3b35 97bd
000000f0: be07 b2bd 5730 fc3c bb01 4ebd 9a7b 06bd
00000100: 24a1 7e3d 3647 fcb9 4463 b7bd a6b7 d23c
00000110: 008a 5c39 8d08 fcbc 88f4 7bbd 841d 6cbc
00000120: fa51 5b3d 33d8 9cbc c814 6bbc 6fc8 8c3d
00000130: de46 8dbd c307 5c3d 8948 bb3c cf9a 64bc
00000140: 6451 4cbc 7d54 48bd 02d5 30bd dd38 153d
00000150: 1e63 7c3d 6b6f a8bd b37d bbbd 6954 4a3c
00000160: 3c7c febd baec 5c3d fdfc a2bd d3cb 35bd
00000170: cb32 d3bd bcd8 d13b 4305 37bd 5a5f 05be
00000180: 30e5 b73c c2c8 373c ea54 3bbe a1dc d7bd
00000190: dd36 5fbd df0b 913d f1b0 c33c 2ffa 84bd
000001a0: ceee 65bd 703d 63bd 17d1 ff3a e3ac bf3c
000001b0: 0977 adbd 6bd7 863d a778 63bd 0bce 3d3d
000001c0: adcb 68be b42f 12be 1b3d 643d 30c3 abbd
000001d0: c02b d6bb 4793 583d 6fef 2b3c f761 aabc
000001e0: 4923 d4bc 2a46 2d3d ec45 3cbd 9c27 8f3d
000001f0: cdb6 43bd 3632 c6bc 6061 fdbb f56a 80bd
00000200: b4d5 ac3b d061 bdbe 7940 edbd 632a f2bc
00000210: 2a78 1fbd 518d 143d b117 07bd d44f 0fbf
00000220: e363 bfbe 4482 a9bd 0af5 aabd c422 f9bd
00000230: 03c8 613d 61a8 d6bd 3726 8abd f01e 2dbe
00000240: 8812 70be 4ea6 d0bd ba67 82bd 17eb 81be
00000250: e6ec a1bd 06af b23d 186e c83a fc72 0ebe
00000260: aad8 1bbd 703e 0abc 2765 4dbe 85c7 853d
00000270: 7cae d0bc c05d 353d 0ca1 18be 4e35 c7bd
00000280: f3fc 9abe 6472 afbd e116 b7bd c08f d1be
00000290: cd8e 31be 1ec7 19bf dc11 56bc a481 9cbc
000002a0: aa44 58bd e765 42be 5d09 33be 466c 77bc
000002b0: 88b8 8dbd 8207 c5bb 27e9 3dbd 7cc4 0ebe
000002c0: 3c58 c5bd d5d7 7abe 9307 243e 0196 abbd
000002d0: a1d4 a8bc 29ec e5bd a8e5 c2bd 0b6b 03bd
000002e0: 37e4 1fbf 4205 d9bd 4f91 89bd 4ed7 98be
000002f0: 10f9 4e3c 12a9 07be 7c17 92be 2990 38be
00000300: fbf2 80bd 5910 0fbe 0ec7 f4be 823e d23c
00000310: da38 4a3d df6b fbbd c77c 923d d880 d3be
00000320: befc 0dbe e17f eabe d8f1 77bc 2e85 4abd
00000330: 5831 8fbe ee35 25bd da80 75bd 1b39 99be
00000340: 42e6 bc3d d128 47bd b206 dfbc f9fc 95bd
00000350: 7064 e7bb 69b1 d3bc c2f7 bbbd f720 95bd
00000360: 392c 0dbe c9b9 1f3d edcd 5cbe d320 bfbd
00000370: 6f34 e1bd a5da 0cbd 7be8 94be e817 e3bd
00000380: a330 a7bd ae4b e5bd 0e0e 463e 3ab7 a0bd
00000390: e8c8 a4bd 0ed8 6dbe 3160 13bf 758d 52be
000003a0: a1d6 4ebd b88f abbd 88d0 023e 65db 5ebd
000003b0: 9983 803d 56c5 afbd c06e dabd 563a f9be
000003c0: fba7 a8bd ddbe f2bd d052 cebd dbad cebd
000003d0: f129 8a3d b49d 14be 6ae0 f1bc ffb3 603c
000003e0: b981 7dbe 20d9 593b 5f06 d8bd 9807 aebd
000003f0: dad4 4b3d 1eb8 5bbe 742f dd3c a405 ea3c

net.2.bias f4 [128]
-0.17061792 -0.17674902 -0.43551478 -0.1639433 -0.18999748 -0.14460093 -0.24283245 -0.70426404
-0.18121675 -0.41288933 -0.18559888 -0.1094253 -0.050378803 -0.12554157 -0.1120246 -0.29548737
-0.11664302 -0.45004913 -0.44417682 -0.9457725 -0.32566968 -0.21362029 -0.11562491 -1.1361586
-0.19783731 -0.6626548 -0.09298131 -1.0353056 -0.4064414 -0.41002658 -0.18608204 -0.76550484
-0.8883889 -0.29122365 -0.17110066 -0.11868994 -0.52364224 -0.1150638 -0.17020836 -0.67363876
-0.048191957 -0.18037002 -0.53861344 -1.2407652 -0.23169538 -0.11919442 -0.12164939 -0.14615142
-0.5583267 -0.96979237 -0.2988611 -0.7723142 -0.06682635 1.8300616 -0.1559562 -0.8950488
-0.3540242 -1.733461 -0.11845164 -0.24807657 -0.9869473 -0.12964162 -0.08235034 -0.5160429
-0.36016384 0.4898287 -0.7137781 -0.3967562 -0.7266151 -0.15583122 -0.06508486 -0.14043678
-0.7290203 -1.2424726 -0.14819439 -0.119320415 -0.5333316 0.13175552 -0.13062535 -0.5945186
-0.95410204 -0.4037615 -3.027932 -0.13854146 -0.037472308 -0.8861934 -0.9264869 -0.25837824
-0.10398123 -0.12762049 -1.0413454 -0.6321448 -0.7411422 -0.28847805 -0.14803708 -0.092810534
-0.18186542 -0.53993654 -0.16875798 -0.5851593 -0.14636287 -0.08519349 -0.5912582 -0.7257339
-0.12897421 -2.1691139 -0.23346731 -0.30098903 -0.21583003 -0.145154 -0.1170375 -0.31602064
-0.16657218 -0.6378364 -0.116708085 -0.26752454 -0.49049866 -0.3623695 -0.58259505 -0.16409056
-0.47559792 -0.14369626 -0.087616324 -0.18906492 -0.2412558 -0.10520863 -0.4619763 -0.425079
00000000: 77b6 2ebe b2fd 34be cbfb debe c1e0 27be
00000010: b38e 42be 4412 14be 12a9 78be a64a 34bf
00000020: e290 39be 3b66 d3be a20d 3ebe 5f1a e0bd
00000030: 015a 4ebd f88d 00be 276d e5bd 1f4a 97be
00000040: 89e2 eebd d76c e6be 256b e3be 261e 72bf
00000050: 2dbe a6be 47bf 5abe c1cc ecbd a56d 91bf
00000060: dd95 4abe bfa3 29bf fc6c bebd e584 84bf
00000070: 1619 d0be 01ef d1be 4a8c 3ebe 20f8 43bf
00000080: 746d 63bf 441b 95be 0335 2fbe b613 f3bd
00000090: 6b0d 06bf 92a6 ebbd 1a4b 2ebe 9773 2cbf
000000a0: ee64 45bd ebb2 38be 92e2 09bf 65d1 9ebf
000000b0: 8e41 6dbe 341c f4bd 5123 f9bd b8a8 15be
000000c0: 80ee 0ebf 5044 78bf 5204 99be 62b6 45bf
000000d0: 41dc 88bd 753f ea3f fbb2 1fbe eb21 65bf
000000e0: a942 b5be 0de2 ddbf c696 f2bd c907 7ebe
000000f0: 94a8 7cbf c6c0 04be 4ca7 a8bd 631b 04bf
00000100: 6567 b8be d4ca fa3e 29ba 36bf a123 cbbe
00000110: 7203 3abf 3892 1fbe 364b 85bd a9ce 0fbe
00000120: 13a1 3abf 5809 9fbf 45c0 17be 435e f4bd
00000130: 6b88 08bf ebea 063e a7c2 05be 5f32 18bf
00000140: 0840 74bf d4b9 cebe a3c9 41c0 d0dd 0dbe
00000150: 907c 19bd 92dd 62bf 3f2e 6dbf 274a 84be
00000160: 1cf4 d4bd f2ae 02be ce4a 85bf 3ed4 21bf
00000170: 7fbb 3dbf 65b3 93be 0897 17be 7313 bebd
00000180: ee3a 3abe 4839 0abf e4ce 2cbe 00cd 15bf
00000190: 26e0 15be ed79 aebd b35c 17bf b2c9 39bf
000001a0: d111 04be c3d2 0ac0 0e12 6fbe 3c1b 9abe
000001b0: 8c02 5dbe 40a3 14be 5bb1 efbd 75cd a1be
000001c0: e691 2abe 3f49 23bf a604 efbd faf8 88be
000001d0: a422 fbbe 7f88 b9be f324 15bf 5b07 28be
000001e0: 9281 f3be 1d25 13be 3070 b3bd 3c9a 41be
000001f0: c30b 77be 9f77 d7bd 2888 ecbe f4a3 d9be

net.4.weight f4 [7, 128]
-0.009108118 0.20683876 0.0009471269 0.0680861 0.05681322 -0.046579592 0.44264555 0.7492646
0.045882776 0.26132548 -0.03935744 0.023559317 -0.20035058 0.022951132 0.049089536 0.15150495
-0.04023157 0.3193321 0.40160716 0.44617778 0.017095186 0.27495804 -0.05877206 0.31725323
-0.02221527 0.3852605 0.343229 0.5373475 0.810139 0.38231164 0.022302879 -0.26210356
0.1882254 0.3976082 0.027301144 0.06006385 0.37144506 0.0071875714 0.44632018 0.9206629
-0.05745544 0.91635823 0.14113685 0.14317809 0.033599406 -0.034737285 -0.11185232 0.024857905
0.19704092 0.09933061 0.3631151 0.6710583 0.1348444 -0.08614959 -0.026579283 -0.096692815
0.23376472 0.36623538 0.03382993 0.53041035 0.07263401 -0.047644634 0.0046316227 0.22135544
0.1337358 0.17732781 -0.15631492 0.38620797 0.048059393 -0.02893348 0.058002915 0.018062605
0.11924385 0.042701434 -0.03210778 0.038138255 0.7061225 -0.030560892 0.033823892 0.0041349875
-0.03734441 0.5441041 -0.095603146 0.020011602 -0.022894247 0.5921832 -0.33481967 0.6272721
-0.06972105 0.06241123 1.0335324 0.46514723 0.012567076 0.8440308 0.06406423 0.03438097
0.027922774 0.3510301 0.020856684 0.015458343 0.03249165 -0.02114735 0.72996974 0.5146
0.035224028 0.1344561 0.50687397 0.34143412 0.28263596 0.053411365 -0.035420287 0.45958504
-0.042225987 0.7847733 0.07483296 0.029120637 0.31663564 0.4176004 -0.29473504 -0.05768766
0.39258513 -0.019515084 0.0033398352 -0.10426473 0.3414673 0.47428378 1.074776 0.35785195
0.0072353375 -0.1283804 0.25747395 0.011857174 0.07645102 -0.06635315 0.4452756 0.6327349
0.027619986 0.007875538 0.02355753 0.065998085 -0.27165863 -0.018062608 0.00436216 0.26847818
-0.029630499 0.41569304 0.05642418 0.37810028 0.07888979 0.53589404 -0.07362991 0.69913447
-0.0001756843 0.2131042 0.3991675 0.39179036 0.6923499 0.40964755 -0.048590988 0.30483228
0.06541783 0.31556797 0.0232995 0.013291597 0.14682451 -0.024865808 0.22951539 0.8910466
-0.01079105 0.9435264 0.11667469 0.16110893 -0.035057627 -0.0075610513 -0.06343135 -0.046103466
0.21640632 0.13929631 0.3260907 0.6509957 0.01314007 -0.08842992 -0.040894635 -0.0117873335
0.2630412 0.49548388 0.015561085 0.45739087 0.13159354 -0.030961955 -0.046658117 0.2906985
-0.3175065 0.1817693 -0.11567695 0.44968143 -0.36094546 -0.052479938 -0.061506663 -0.008121534
0.09354341 0.097317696 -0.06223081 -0.004551721 0.55494297 0.0029354934 0.006857006 -0.007698684
0.099827126 0.23955247 -0.09578206 -0.10547638 -0.014380725 0.26048172 0.63281024 0.50419676
0.049616035 0.036908034 0.9879415 0.4672714 0.22942637 0.7514483 -0.023783682 0.057419237
-0.07621599 0.29856205 -0.047300432 0.03576425 0.011564031 0.060268227 0.8834284 0.5708275
-0.04259684 0.059878077 0.53698874 0.16996151 0.30389392 0.06606297 0.026287457 0.28272417
0.016786387 0.58891195 -0.07257718 -0.10120136 0.280628 0.3832424 -0.7094288 -0.051160347
0.3378723 0.08966486 0.049243204 -0.099316515 0.46376604 0.6792164 1.0526992 0.31258798
00000000: 373a 15bc 8acd 533e 9c48 783a ba70 8b3d
00000010: fbb4 683d 3eca 3ebd 70a2 e23e cecf 3f3f
00000020: 94ef 3b3d 74cc 853e 4435 21bd 78ff c03c
00000030: b428 4dbe 0304 bc3c 1c12 493d 1d24 1b3e
00000040: dcc9 24bd 7f7f a33e 749f cd3e 6a71 e43e
00000050: 340b 8c3c 4dc7 8c3e f9ba 70bd 046f a23e
00000060: ccfc b5bc dd40 c53e b6bb af3e 9b8f 093f
00000070: 4565 4f3f 5abe c33e 87b4 b63c 7032 86be
00000080: 29be 403e 4d93 cb3e a6a6 df3c 8305 763d
00000090: 0c2e be3e b885 eb3b 1484 e43e 90b0 6b3f
000000a0: 6556 6bbd 7496 6a3f 2e86 103e 479d 123e
000000b0: 889f 093d af48 0ebd d412 e5bd cea2 cb3c
000000c0: 18c5 493e d96d cb3d 39ea b93e 7aca 2b3f
000000d0: a714 0a3e 326f b0bd ccbc d9bc e206 c6bd
000000e0: 0560 6f3e 3483 bb3e 4191 0a3d f9c8 073f
000000f0: 24c1 943d 0527 43bd dec4 973b 00ab 623e
00000100: 0af2 083e 6c95 353e 0511 20be 0dbd c53e
00000110: edd9 443d e805 edbc 7794 6d3d 07f8 933c
00000120: 1f36 f43d b3e7 2e3d 7383 03bd dc36 1c3d
00000130: 72c4 343f d65a fabc ec8a 0a3d ca7e 873b
00000140: 74f6 18bd 684a 0b3f 95cb c3bd 5fef a33c
00000150: b78c bbbc 5199 173f 7c6d abbe e894 203f
00000160: e9c9 8ebd eba2 7f3d ca4a 843f c727 ee3e
00000170: 23e6 4d3c 6712 583f 1b34 833d 0fd3 0c3d
00000180: 4dbe e43c 38ba b33e a3db aa3c fd44 7d3c
00000190: f715 053d 353d adbc 4cdf 3a3f d3bc 033f
000001a0: 1247 103d dcae 093e 7ec2 013f 74d0 ae3e
000001b0: a9b5 903e e0c5 5a3d dd14 11bd bb4e eb3e
000001c0: 28f5 2cbd e7e6 483f 0642 993d 678e ee3c
000001d0: 111e a23e b8cf d53e 83e7 96be e549 6cbd
000001e0: eb00 c93e 19de 9fbc 23e1 5a3b bf88 d5bd
000001f0: cdd4 ae3e 53d5 f23e 4392 893f 5f38 b73e
00000200: 6916 ed3b 2776 03be a0d3 833e 9844 423c
00000210: 5a92 9c3d 29e4 87bd 2afb e33e eafa 213f
00000220: 4f43 e23c 6708 013c b9fb c03c 012a 873d
00000230: d716 8bbe 09f8 93bc 73f0 8e3b f975 893e
00000240: a9bb f2bc b8d5 d43e 0a1d 673d 5c96 c13e
00000250: f890 a13d 5a30 093f 47cb 96bd 7afa 323f
00000260: e537 38b9 fd37 5a3e af5f cc3e bf98 c83e
00000270: d83d 313f 53bd d13e 5807 47bd fa12 9c3e
00000280: c9f9 853d 2092 a13e 98de be3c 00c5 593c
00000290: 2a59 163e 61b3 cbbc 1506 6b3e a11b 643f
000002a0: f2cc 30bc f28a 713f 24f3 ee3d bdf9 243e
000002b0: 9698 0fbd b2c2 f7bb 4ce8 81bd fdd6 3cbd
000002c0: 9e99 5d3e b1a3 0e3e 5cf5 a63e a7a7 263f
000002d0: 7349 573c bf1a b5bd 2281 27bd a91f 41bc
000002e0: 56ad 863e 10b0 fd3e ecf3 7e3c 232f ea3e
000002f0: 75c0 063e eda3 fdbc 951c 3fbd 6fd6 943e
00000300: 3690 a2be bb21 3a3e 09e8 ecbd a53c e63e
00000310: d8cd b8be 34f5 56bd 69ee 7bbd 2f10 05bc
00000320: b093 bf3d 804e c73d bce5 7ebd 9a26 95bb
00000330: be10 0e3f 6861 403b bcb0 e03b 3e45 fcbb
00000340: 2a72 cc3d 3e4d 753e 6229 c4bd 0004 d8bd
00000350: 229d 6bbc dc5d 853e daff 213f 0a13 013f
00000360: 2f3a 4b3d e12c 173d bce9 7c3f 323e ef3e
00000370: bfee 6a3e ea5e 403f ffd5 c2bc 6f30 6b3d
00000380: 2117 9cbd 20dd 983e 19be 41bd 897d 123d
00000390: 1077 3d3c d1db 763d 5d28 623f c021 123f
000003a0: 067a 2ebd b742 753d 1878 093f 640a 2e3e
000003b0: fc97 9b3e 064c 873d cb58 d73c 39c1 903e
000003c0: 9b83 893c efc2 163f 58a3 94bd a942 cfbd
000003d0: 79ae 8f3e 5938 c43e 209d 35bf 838d 51bd
000003e0: 99fd ac3e 36a2 b73d 3eb3 493d 7566 cbbd
000003f0: be72 ed3e 20e1 2d3f d9be 863f 880b a03e

net.4.bias f4 [7]
0.79143876 0.7890738 0.79088867 0.79495806 0.79976636 0.7947363 0.7941747
00000000: bb9b 4a3f be00 4a3f ae77 4a3f 5f82 4b3f
00000010: 7dbd 4c3f d773 4b3f 084f 4b3f

net.0.weight f4 [128, 5]
-3.1025875 -0.3973174 -1.7351942 0.1900387 -0.6392446 -0.41496843 0.06236396 -0.4905008
-0.42182782 -0.05432765 0.35046706 -0.78534186 -7.9922876 0.41544518 0.99662995 -0.38637686
-0.03142331 -0.47086546 -0.11134036 -0.004176682 0.44357058 0.051475387 -0.52599823 -0.8920009
0.021727754 -0.04521748 0.078410454 -0.050638434 -0.12605795 0.08082506 -1.080621 0.17595571
-0.4140665 -0.42711994 -0.012572781 -1.3459463 -0.6978041 -2.1546006 -0.6577001 -0.038027562
-1.662736 -0.37695634 -0.93162775 -0.46684244 -1.6125574 -0.0028129518 -0.25173458 0.09620035
0.21442723 -0.41284943 1.3180263 -0.687871 1.0475076 -0.061350007 0.76035464 0.2162737
-0.88039166 -3.422813 -0.7710434 0.56761074 -3.2226062 -0.8044199 1.3948328 -1.5914792
-0.56848764 -3.6131747 -0.28494373 0.51314527 0.8034658 0.27163783 1.1604494 -0.80312246
-6.287655 -1.4492087 -1.1487641 0.16214256 -0.3221226 -0.24660285 -0.539283 0.32399482
-1.7254504 0.25311533 -4.479596 -2.3066866 -3.5477114 -3.2168026 -0.71390164 -0.17525734
0.09303871 -0.10599155 -1.2785308 -1.507298 -1.9058043 -0.9919633 0.51547 -0.4072885
0.049210075 -1.1400977 -0.517173 -0.4780768 -0.9666829 -0.6632969 -1.6848917 0.009351147
0.3809501 -1.4175539 0.0030060306 -0.35507616 -0.22101413 0.17430162 -3.8663454 0.06608273
0.76037633 0.5347452 0.64877266 -1.987136 -0.38239583 0.8252302 -0.44884425 -1.5394614
-0.05815487 -0.33316752 0.35448807 -0.30308333 -0.22097585 -0.3907139 -0.1779862 -0.389831
0.017812133 0.21624643 0.94885427 -0.04020401 -0.10792585 -0.09661369 -0.64855343 -0.10528904
-0.40088204 -0.3831839 -0.24298736 -0.19040492 -2.3452823 -0.4172985 -2.806954 1.0122502
-1.206617 -3.652373 -0.30738857 -2.3249676 1.3009366 0.49304634 -2.7284222 -0.16680141
0.61381376 -0.09123531 0.24926746 -0.70084685 0.008096218 -2.6482656 -0.29688582 0.4757884
0.5183499 -0.30480433 -2.0688665 -0.22717029 -0.27198726 0.17573076 -0.21108237 -0.08325726
-0.17575568 -0.16594559 -1.0127851 -0.06897122 -1.7538346 -0.97033197 -1.797243 -0.19470634
-0.16074565 -3.7592065 0.7765118 -0.62976307 -1.6487323 0.31298506 1.2411253 -2.310025
-0.31952223 -0.29262346 -0.4729833 -3.0283563 0.1536155 -0.2702613 1.5395416 0.08197315
-3.1638596 0.42359293 0.0069262544 -0.4239347 -0.15697664 -0.17937493 -0.25317928 -0.13086483
-2.2231243 -1.2057027 0.5366325 -0.52691454 0.2133856 -4.647566 -0.26645094 -2.5996287
1.1203382 -1.8872354 -2.3417974 -0.044486456 -1.1665725 -0.018834325 -0.5104428 -0.16321075
-0.40571132 -6.5147057 -1.1757231 -0.6544332 -0.053577073 0.007951771 -0.34504995 -0.02753638
-0.055907402 0.086280055 0.015913894 0.024949845 -0.066857845 0.043601062 -4.732439 -0.21900485
1.7550037 0.6000348 1.2857238 -1.8984413 -0.1272176 -1.530677 -1.0984813 -0.5100657
-11.467881 0.1302598 1.5065776 0.062598 2.5402544 -3.8871355 0.31034073 0.4802332
0.6176826 0.440016 -9.352071 0.36590475 -0.27550825 -0.93187916 -2.9344258 -1.379155
00000000: cb90 46c0 306d cbbe d81a debf 8199 423e
00000010: 89a5 23bf be76 d4be 5a71 7f3d ec22 fbbe
00000020: d1f9 d7be ac86 5ebd 6b70 b33e 2a0c 49bf
00000030: d2c0 ffc0 3bb5 d43e 2423 7f3f 30d3 c5be
00000040: bbb5 00bd 4715 f1be 6a06 e4bd 8cdc 88bb
00000050: af1b e33e dbd7 523d d2a7 06bf 2c5a 64bf
00000060: 67fe b13c f735 39bd a995 a03d 3f6a 4fbd
00000070: 5615 01be 9c87 a53d ca51 8abf bc2d 343e
00000080: 8600 d4be 77af dabe 11fe 4dbc f847 acbf
00000090: 4aa3 32bf fae4 09c0 095f 28bf cac2 1bbd
000000a0: 89d4 d4bf 6c00 c1be 287f 6ebf f905 efbe
000000b0: 4868 cebf 8059 38bb 5be3 80be b004 c53d
000000c0: d092 5b3e 0061 d3be 16b5 a83f 5018 30bf
000000d0: bb14 863f 254a 7bbd 9aa6 423f da76 5d3e
000000e0: 5961 61bf 5e0f 5bc0 1a63 45bf f04e 113f
000000f0: 2e3f 4ec0 76ee 4dbf e289 b23f 97b5 cbbf
00000100: 6888 11bf 413e 67c0 25e4 91be 7d5d 033f
00000110: efaf 4d3f 1d14 8b3e 9b89 943f 6f99 4dbf
00000120: 7834 c9c0 ac7f b9bf b40a 93bf b308 263e
00000130: 41ed a4be 7585 7cbe 730e 0abf a6e2 a53e
00000140: 8fdb dcbf 5598 813e da58 8fc0 c1a0 13c0
00000150: b40d 63c0 18e0 4dc0 42c2 36bf a976 33be
00000160: 148b be3d 1912 d9bd e6a6 a3bf 24ef c0bf
00000170: 65f1 f3bf 4ff1 7dbf d8f5 033f 1e88 d0be
00000180: 8190 493d b9ee 91bf 7365 04bf 7bc6 f4be
00000190: 8878 77bf d3cd 29bf 88aa d7bf 8e35 193c
000001a0: e40b c33e 6872 b5bf d300 453b 8bcc b5be
000001b0: 8751 62be 207c 323e 3472 77c0 6256 873d
000001c0: 06a8 423f 10e5 083f f715 263f 795a febf
000001d0: 63c9 c3be 4942 533f eace e5be 120d c5bf
000001e0: cd33 6ebd ef94 aabe 767f b53e bd2d 9bbe
000001f0: 7e47 62be a70b c8be 0442 36be ee97 c7be
00000200: c0ea 913c b46f 5d3e 1de8 723f f6ac 24bd
00000210: 3a08 ddbd 66dd c5bd 9907 26bf c8a1 d7bd
00000220: 6940 cdbe ae30 c4be aed1 78be 82f9 42be
00000230: 1b19 16c0 26a8 d5be 22a5 33c0 6a91 813f
00000240: 6d72 9abf 7bc0 69c0 0962 9dbe 45cc 14c0
00000250: 1785 a63f 9270 fc3e 789e 2ec0 fdcd 2abe
00000260: e622 1d3f 94d9 babd f83f 7f3e b36a 33bf
00000270: 00a6 043c 2f7d 29c0 6b01 98be 8a9a f33e
00000280: 94b2 043f 500f 9cbe 4f68 04c0 549f 68be
00000290: ea41 8bbe c4f2 333e fa25 58be c882 aabd
000002a0: 4cf9 33be a4ed 29be f1a2 81bf c840 8dbd
000002b0: a77d e0bf ad67 78bf 0f0c e6bf 1961 47be
000002c0: 829a 24be d796 70c0 7ac9 463f 2738 21bf
000002d0: a909 d3bf 943f a03e 32dd 9e3f 73d7 13c0
000002e0: 6b98 a3be bed2 95be de2a f2be 97d0 41c0
000002f0: 624d 1d3e b05f 8abe b30f c53f 8ae1 a73d
00000300: ad7c 4ac0 2ce1 d83e a2f5 e23b f80d d9be
00000310: 7cbe 20be 10ae 37be b7a0 81be 6e01 06be
00000320: ab47 0ec0 7754 9abf bf60 093f dfe3 06bf
00000330: c181 5a3e dcb8 94c0 426c 88be 5160 26c0
00000340: 3e67 8f3f ee90 f1bf 02e0 15c0 6e37 36bd
00000350: 3f52 95bf 714a 9abc 61ac 02bf b820 27be
00000360: 65b9 cfbe 7878 d0c0 187e 96bf ef88 27bf
00000370: a273 5bbd 2548 023c 63aa b0be f993 e1bc
00000380: 29ff 64bd 99b3 b03d db5d 823c 9e63 cc3c
00000390: c4ec 88bd 0797 323d 2470 97c0 cf42 60be
000003a0: f6a3 e03f e19b 193f 9992 a43f 2000 f3bf
000003b0: 5545 02be 39ed c3bf 099b 8cbf aa93 02bf
000003c0: 717c 37c1 d362 053e 89d7 c03f 6133 803d
000003d0: 8793 2240 d4c6 78c0 fbe4 9e3e 20e1 f53e
000003e0: 7220 1e3f c749 e13e 15a2 15c1 de57 bb3e
000003f0: 6b0f 8dbe a28f 6ebf a2cd 3bc0 2788 b0bf

net.0.bias f4 [128]
2.3895254 -0.21902433 -1.2330819 -0.013351074 -0.7024322 -0.4685938 -0.6434085 0.24609993
2.4968462 -0.31191218 -2.9015481 -0.4791774 1.6499225 2.964698 -0.8520947 -0.3925338
2.9179015 2.557327 -0.06668521 -0.20298713 -0.18855017 -0.21972641 1.2729865 0.6905032
-0.303926 -0.3480698 -0.9269851 0.09779954 1.6613289 1.9165298 1.7766976 -0.48627537
-0.4568155 -0.41684696 2.1025293 3.0007246 -0.5708711 -0.020665849 -2.236956 -0.035997868
-0.3884153 1.6496034 0.01896448 0.18921557 -0.11144333 -0.20426215 1.127542 2.4738827
1.970101 1.3876696 0.5238931 -0.040460017 0.3941491 -1.05464 2.1290758 -1.5956941
-0.17949742 -0.2850426 -0.37923187 -0.6658841 -0.23185848 -0.037401207 -1.5683757 2.541998
-0.92883116 0.751658 -0.65668803 -0.077163815 -0.5096279 -0.08230847 -0.37631628 -0.8335518
-0.36408263 1.9297136 -0.33428842 -0.47503656 -0.9643889 -0.937687 -0.6517577 -0.51018476
1.9137452 -0.3407211 -0.2843296 -0.099390276 0.013638824 -0.20771044 0.47208732 0.17529254
-2.0755913 -0.5765941 -1.1084265 -0.48237675 -0.85375464 -0.27773473 1.2209637 1.6107603
1.2205037 1.7804729 2.8726149 0.91649646 -1.1215038 0.8484493 -2.8556643 -1.2922794
-0.40847048 -0.4532959 2.7337816 -0.11246381 -0.33441764 -0.44011956 0.41565645 1.4210424
-0.18081051 -0.18313625 -0.11436969 1.6255199 -0.3620229 -0.7860291 1.5192984 0.047727518
0.7117099 -0.4135574 1.9102678 0.07294141 -0.30581236 -0.3485572 -0.40690538 -0.34051237
00000000: fced 1840 ea47 60be a1d5 9dbf 77be 5abc
00000010: 99d2 33bf 87eb efbe 6bb6 24bf 9f01 7c3e
00000020: 54cc 1f40 f4b2 9fbe f7b2 39c0 bd56 f5be
00000030: a930 d33f 9dbd 3d40 e122 5abf 31fa c8be
00000040: e6be 3a40 3fab 2340 4192 88bd dcdb 4fbe
00000050: 4c13 41be f6ff 60be 39f1 a23f d1c4 303f
00000060: 309c 9bbe 3436 b2be e54e 6dbf 204b c83d
00000070: 6da6 d43f d950 f53f d46a e33f 16f9 f8be
00000080: b9e3 e9be f76c d5be d78f 0640 df0b 4040
00000090: 9c24 12bf 6d4b a9bc 492a 0fc0 8072 13bd
000000a0: 5fde c6be 3426 d33f 665b 9b3c bac1 413e
000000b0: 673c e4bd 192a 51be 4c53 903f 1854 1e40
000000c0: 452c fc3f 289f b13f dc1d 063f 67b9 25bd
000000d0: e9cd c93e 72fe 86bf c742 0840 b43f ccbf
000000e0: 2cce 37be 1bf1 91be ae2a c2be 6177 2abf
000000f0: 4f6c 6dbe 0232 19bd 89c0 c8bf 18b0 2240
00000100: e1c7 6dbf a96c 403f b51c 28bf 1008 9ebd
00000110: f976 02bf 5891 a8bd 87ac c0be a763 55bf
00000120: 0a69 babe db00 f73f da27 abbe fe37 f3be
00000130: 31e2 76bf 410c 70bf 98d9 26bf 789b 02bf
00000140: 9af5 f43f ff72 aebe a693 91be 218d cbbd
00000150: 6075 5f3c 0cb2 54be 6eb5 f13e e37f 333e
00000160: 7dd6 04c0 ac9b 13bf ebe0 8dbf 16fa f6be
00000170: aa8f 5abf 3f33 8ebe 8a48 9c3f 652d ce3f
00000180: 7739 9c3f 89e6 e33f ecd8 3740 839f 6a3f
00000190: 708d 8fbf f933 593f 34c3 36c0 6969 a5bf
000001a0: 0b23 d1be 6616 e8be 47f6 2e40 6d53 e6bd
000001b0: ca38 abbe 5a57 e1be ecd0 d43e b8e4 b53f
000001c0: 6426 39be 1288 3bbe a83a eabd 0911 d03f
000001d0: 115b b9be 3439 49bf 5f78 c23f ee7d 433d
000001e0: 9f32 363f ccbd d3be a883 f43f 4e62 953d
000001f0: 7093 9cbe 1776 b2be e755 d0be a357 aebe

net.2.weight f4 [128, 128]
-0.048582844 -0.0070758234 -0.0114666065 -0.100525536 -0.03947818 -0.10377849 -0.0578744 -0.011976018
-0.07707351 0.046667673 -0.0430937 0.058272906 -0.041844327 -0.11387947 0.050613377 -0.069790006
-0.02373651 -0.09433066 -0.03723879 -0.11536575 0.040636815 0.038555607 -0.071004756 -0.07151341
-0.07613849 0.056050695 -0.07587697 0.041877918 0.0074144467 -0.06155331 -0.032497853 -0.003100273
-0.05096745 0.036460154 0.01665585 0.016549693 -0.081759356 -0.08126048 0.00070707226 0.05502636
0.022786492 0.09345288 0.043887924 -0.03764298 -0.06582439 -0.10359492 0.01763031 -0.11814742
-0.022868076 -0.038211882 -0.08964933 -0.091136165 -0.114307985 -0.0107465545 0.017205741 0.034873206
0.023017008 0.04714142 -0.00557784 -0.073832 -0.08692883 0.030784769 -0.05029462 -0.03283272
0.062165394 -0.00048118242 -0.0895448 0.025722336 0.00021032244 -0.030765796 -0.0615125 -0.014411334
0.053544976 -0.01914606 -0.014348216 0.06874167 -0.068982825 0.05371834 0.022861736 -0.013952925
-0.012470577 -0.0489087 -0.04317189 0.036431182 0.061617963 -0.08224376 -0.091548346 0.0123492265
-0.124260396 0.053936698 -0.0795841 -0.044383835 -0.10312422 0.0064040106 -0.044682752 -0.13024655
0.022448152 0.011217298 -0.18294111 -0.105401285 -0.05449568 0.07082342 0.023888083 -0.06493031
-0.056135945 -0.055478513 0.001951727 0.023397868 -0.0846997 0.065840565 -0.055534985 0.046339076
-0.22733946 -0.1427601 0.055722337 -0.083868384 -0.006535977 0.05287483 0.010494097 -0.020798666
-0.025895732 0.04230324 -0.04596512 0.06989977 -0.047781754 -0.024193864 -0.0077325553 -0.062704004
0.005274499 -0.36988688 -0.11584563 -0.029561227 -0.038932957 0.036267582 -0.03298158 -0.55981183
-0.37380895 -0.08276799 -0.08347519 -0.12164834 0.055122387 -0.104813345 -0.0674557 -0.16906333
-0.23444569 -0.1018797 -0.063674405 -0.25374672 -0.07906513 0.08724789 0.00152916 -0.1391105
-0.038048424 -0.008437738 -0.20058118 0.06532196 -0.025473826 0.04427886 -0.14905185 -0.09726964
-0.3027111 -0.0856674 -0.08939911 -0.40929985 -0.1733963 -0.60069454 -0.013065781 -0.019104786
-0.05279986 -0.18984185 -0.1748404 -0.015101498 -0.06919962 -0.006012858 -0.04636493 -0.1394214
-0.0963597 -0.24496396 0.16018514 -0.0837822 -0.020609202 -0.112266846 -0.0951646 -0.032084506
-0.62457603 -0.10596706 -0.067171685 -0.29851764 0.012632623 -0.13248089 -0.28533542 -0.18023743
-0.06296345 -0.1397108 -0.47808117 0.025664572 0.049370624 -0.12276434 0.07152706 -0.41309237
-0.13865945 -0.4580069 -0.015133344 -0.049443416 -0.27967334 -0.040334634 -0.059937336 -0.2992638
0.09223606 -0.04862291 -0.027224872 -0.07323641 -0.0070615336 -0.025841432 -0.091781154 -0.07281678
-0.13786401 0.038995538 -0.2156293 -0.093324326 -0.10996329 -0.034388203 -0.2908362 -0.11088544
-0.081635736 -0.111960754 0.19341299 -0.07847448 -0.08046132 -0.2322695 -0.5756865 -0.20561774
-0.050497655 -0.083770216 0.12774861 -0.05440845 0.062751 -0.08582561 -0.10665655 -0.4867732
-0.08235165 -0.118528105 -0.10074389 -0.10091754 0.06746281 -0.14513284 -0.029525954 0.013714789
-0.24756517 0.003324099 -0.1054809 -0.08497542 0.049763538 -0.21456954 0.027000166 0.028567143
00000000: cefe 46bd 4fdc e7bb 6fde 3bbc 55e0 cdbd
00000010: dfb3 21bd d189 d4bd b50d 6dbd 0f37 44bc
00000020: b7d8 9dbd 9a26 3f3d 0583 30bd 92af 6e3d
00000030: f564 2bbd a439 e9bd f94f 4f3d 10ee 8ebd
00000040: 1273 c2bc 6f30 c1bd b487 18bd e144 ecbd
00000050: ca72 263d 7cec 1d3d f16a 91bd 9f75 92bd
00000060: 7fee 9bbd 6a95 653d 6365 9bbd 2e88 2b3d
00000070: e3f4 f23b 531f 7cbd 781c 05bd f32d 4bbb
00000080: 3fc3 50bd 3e57 153d d971 883c 3993 873c
00000090: 7371 a7bd e56b a6bd d15a 393a 5263 613d
000000a0: bdaa ba3c 3964 bf3d d3c3 333d 872f 1abd
000000b0: f0ce 86bd 9329 d4bd 716d 903c 46f7 f1bd
000000c0: d555 bbbc 1084 1cbd 119a b7bd 99a5 babd
000000d0: 4e1a eabd 5112 30bc 0ef3 8c3c 35d7 0e3d
000000e0: 2a8e bc3c 5d17 413d 50c6 b6bb 3b35 97bd
000000f0: be07 b2bd 5730 fc3c bb01 4ebd 9a7b 06bd
00000100: 24a1 7e3d 3647 fcb9 4463 b7bd a6b7 d23c
00000110: 008a 5c39 8d08 fcbc 88f4 7bbd 841d 6cbc
00000120: fa51 5b3d 33d8 9cbc c814 6bbc 6fc8 8c3d
00000130: de46 8dbd c307 5c3d 8948 bb3c cf9a 64bc
00000140: 6451 4cbc 7d54 48bd 02d5 30bd dd38 153d
00000150: 1e63 7c3d 6b6f a8bd b37d bbbd 6954 4a3c
00000160: 3c7c febd baec 5c3d fdfc a2bd d3cb 35bd
00000170: cb32 d3bd bcd8 d13b 4305 37bd 5a5f 05be
00000180: 30e5 b73c c2c8 373c ea54 3bbe a1dc d7bd
00000190: dd36 5fbd df0b 913d f1b0 c33c 2ffa 84bd
000001a0: ceee 65bd 703d 63bd 17d1 ff3a e3ac bf3c
000001b0: 0977 adbd 6bd7 863d a778 63bd 0bce 3d3d
000001c0: adcb 68be b42f 12be 1b3d 643d 30c3 abbd
000001d0: c02b d6bb 4793 583d 6fef 2b3c f761 aabc
000001e0: 4923 d4bc 2a46 2d3d ec45 3cbd 9c27 8f3d
000001f0: cdb6 43bd 3632 c6bc 6061 fdbb f56a 80bd
00000200: b4d5 ac3b d061 bdbe 7940 edbd 632a f2bc
00000210: 2a78 1fbd 518d 143d b117 07bd d44f 0fbf
00000220: e363 bfbe 4482 a9bd 0af5 aabd c422 f9bd
00000230: 03c8 613d 61a8 d6bd 3726 8abd f01e 2dbe
00000240: 8812 70be 4ea6 d0bd ba67 82bd 17eb 81be
00000250: e6ec a1bd 06af b23d 186e c83a fc72 0ebe
00000260: aad8 1bbd 703e 0abc 2765 4dbe 85c7 853d
00000270: 7cae d0bc c05d 353d 0ca1 18be 4e35 c7bd
00000280: f3fc 9abe 6472 afbd e116 b7bd c08f d1be
00000290: cd8e 31be 1ec7 19bf dc11 56bc a481 9cbc
000002a0: aa44 58bd e765 42be 5d09 33be 466c 77bc
000002b0: 88b8 8dbd 8207 c5bb 27e9 3dbd 7cc4 0ebe
000002c0: 3c58 c5bd d5d7 7abe 9307 243e 0196 abbd
000002d0: a1d4 a8bc 29ec e5bd a8e5 c2bd 0b6b 03bd
000002e0: 37e4 1fbf 4205 d9bd 4f91 89bd 4ed7 98be
000002f0: 10f9 4e3c 12a9 07be 7c17 92be 2990 38be
00000300: fbf2 80bd 5910 0fbe 0ec7 f4be 823e d23c
00000310: da38 4a3d df6b fbbd c77c 923d d880 d3be
00000320: befc 0dbe e17f eabe d8f1 77bc 2e85 4abd
00000330: 5831 8fbe ee35 25bd da80 75bd 1b39 99be
00000340: 42e6 bc3d d128 47bd b206 dfbc f9fc 95bd
00000350: 7064 e7bb 69b1 d3bc c2f7 bbbd f720 95bd
00000360: 392c 0dbe c9b9 1f3d edcd 5cbe d320 bfbd
00000370: 6f34 e1bd a5da 0cbd 7be8 94be e817 e3bd
00000380: a330 a7bd ae4b e5bd 0e0e 463e 3ab7 a0bd
00000390: e8c8 a4bd 0ed8 6dbe 3160 13bf 758d 52be
000003a0: a1d6 4ebd b88f abbd 88d0 023e 65db 5ebd
000003b0: 9983 803d 56c5 afbd c06e dabd 563a f9be
000003c0: fba7 a8bd ddbe f2bd d052 cebd dbad cebd
000003d0: f129 8a3d b49d 14be 6ae0 f1bc ffb3 603c
000003e0: b981 7dbe 20d9 593b 5f06 d8bd 9807 aebd
000003f0: dad4 4b3d 1eb8 5bbe 742f dd3c a405 ea3c

net.2.bias f4 [128]
-0.17061792 -0.17674902 -0.43551478 -0.1639433 -0.18999748 -0.14460093 -0.24283245 -0.70426404
-0.18121675 -0.41288933 -0.18559888 -0.1094253 -0.050378803 -0.12554157 -0.1120246 -0.29548737
-0.11664302 -0.45004913 -0.44417682 -0.9457725 -0.32566968 -0.21362029 -0.11562491 -1.1361586
-0.19783731 -0.6626548 -0.09298131 -1.0353056 -0.4064414 -0.41002658 -0.18608204 -0.76550484
-0.8883889 -0.29122365 -0.17110066 -0.11868994 -0.52364224 -0.1150638 -0.17020836 -0.67363876
-0.048191957 -0.18037002 -0.53861344 -1.2407652 -0.23169538 -0.11919442 -0.12164939 -0.14615142
-0.5583267 -0.96979237 -0.2988611 -0.7723142 -0.06682635 1.8354075 -0.1559562 -0.8950488
-0.3540242 -1.733461 -0.11845164 -0.24807657 -0.9869473 -0.12964162 -0.08235034 -0.5160429
-0.36016384 0.47537464 -0.7137781 -0.3967562 -0.7266151 -0.15583122 -0.06508486 -0.14043678
-0.7290203 -1.2424726 -0.14819439 -0.119320415 -0.5333316 0.15901597 -0.13062535 -0.5945186
-0.95410204 -0.4037615 -3.029422 -0.13854146 -0.037472308 -0.8861934 -0.9264869 -0.25837824
-0.10398123 -0.12762049 -1.0413454 -0.6321448 -0.7411422 -0.28847805 -0.14803708 -0.092810534
-0.18186542 -0.53993654 -0.16875798 -0.5851593 -0.14636287 -0.08519349 -0.5912582 -0.7257339
-0.12897421 -2.1691139 -0.23346731 -0.30098903 -0.21583003 -0.145154 -0.1170375 -0.31602064
-0.16657218 -0.6378364 -0.116708085 -0.26752454 -0.49049866 -0.3623695 -0.58259505 -0.16409056
-0.47559792 -0.14369626 -0.087616324 -0.18906492 -0.2412558 -0.10520863 -0.4619763 -0.425079
00000000: 77b6 2ebe b2fd 34be cbfb debe c1e0 27be
00000010: b38e 42be 4412 14be 12a9 78be a64a 34bf
00000020: e290 39be 3b66 d3be a20d 3ebe 5f1a e0bd
00000030: 015a 4ebd f88d 00be 276d e5bd 1f4a 97be
00000040: 89e2 eebd d76c e6be 256b e3be 261e 72bf
00000050: 2dbe a6be 47bf 5abe c1cc ecbd a56d 91bf
00000060: dd95 4abe bfa3 29bf fc6c bebd e584 84bf
00000070: 1619 d0be 01ef d1be 4a8c 3ebe 20f8 43bf
00000080: 746d 63bf 441b 95be 0335 2fbe b613 f3bd
00000090: 6b0d 06bf 92a6 ebbd 1a4b 2ebe 9773 2cbf
000000a0: ee64 45bd ebb2 38be 92e2 09bf 65d1 9ebf
000000b0: 8e41 6dbe 341c f4bd 5123 f9bd b8a8 15be
000000c0: 80ee 0ebf 5044 78bf 5204 99be 62b6 45bf
000000d0: 41dc 88bd a2ee ea3f fbb2 1fbe eb21 65bf
000000e0: a942 b5be 0de2 ddbf c696 f2bd c907 7ebe
000000f0: 94a8 7cbf c6c0 04be 4ca7 a8bd 631b 04bf
00000100: 6567 b8be 4e64 f33e 29ba 36bf a123 cbbe
00000110: 7203 3abf 3892 1fbe 364b 85bd a9ce 0fbe
00000120: 13a1 3abf 5809 9fbf 45c0 17be 435e f4bd
00000130: 6b88 08bf 15d5 223e a7c2 05be 5f32 18bf
00000140: 0840 74bf d4b9 cebe 0de2 41c0 d0dd 0dbe
00000150: 907c 19bd 92dd 62bf 3f2e 6dbf 274a 84be
00000160: 1cf4 d4bd f2ae 02be ce4a 85bf 3ed4 21bf
00000170: 7fbb 3dbf 65b3 93be 0897 17be 7313 bebd
00000180: ee3a 3abe 4839 0abf e4ce 2cbe 00cd 15bf
00000190: 26e0 15be ed79 aebd b35c 17bf b2c9 39bf
000001a0: d111 04be c3d2 0ac0 0e12 6fbe 3c1b 9abe
000001b0: 8c02 5dbe 40a3 14be 5bb1 efbd 75cd a1be
000001c0: e691 2abe 3f49 23bf a604 efbd faf8 88be
000001d0: a422 fbbe 7f88 b9be f324 15bf 5b07 28be
000001e0: 9281 f3be 1d25 13be 3070 b3bd 3c9a 41be
000001f0: c30b 77be 9f77 d7bd 2888 ecbe f4a3 d9be

net.4.weight f4 [7, 128]
-0.009108118 0.20683876 0.0009471269 0.0680861 0.05681322 -0.046579592 0.44264555 0.7492646
0.045882776 0.26132548 -0.03935744 0.023559317 -0.20035058 0.022951132 0.049089536 0.15150495
-0.04023157 0.3193321 0.40160716 0.44617778 0.017095186 0.27495804 -0.05877206 0.31725323
-0.02221527 0.3852605 0.343229 0.5373475 0.810139 0.38231164 0.022302879 -0.26210356
0.1882254 0.3976082 0.027301144 0.06006385 0.37144506 0.0071875714 0.44632018 0.9206629
-0.05745544 0.91635823 0.14113685 0.14317809 0.033599406 -0.034737285 -0.11185232 0.024857905
0.19704092 0.09933061 0.3631151 0.6710583 0.1348444 -0.08578825 -0.026579283 -0.096692815
0.23376472 0.36623538 0.03382993 0.53041035 0.07263401 -0.047644634 0.0046316227 0.22135544
0.1337358 0.19565898 -0.15631492 0.38620797 0.048059393 -0.02893348 0.058002915 0.018062605
0.11924385 0.042701434 -0.03210778 0.038138255 0.7061225 -0.020492349 0.033823892 0.0041349875
-0.03734441 0.5441041 -0.09889677 0.020011602 -0.022894247 0.5921832 -0.33481967 0.6272721
-0.06972105 0.06241123 1.0335324 0.46514723 0.012567076 0.8440308 0.06406423 0.03438097
0.027922774 0.3510301 0.020856684 0.015458343 0.03249165 -0.02114735 0.72996974 0.5146
0.035224028 0.1344561 0.50687397 0.34143412 0.28263596 0.053411365 -0.035420287 0.45958504
-0.042225987 0.7847733 0.07483296 0.029120637 0.31663564 0.4176004 -0.29473504 -0.05768766
0.39258513 -0.019515084 0.0033398352 -0.10426473 0.3414673 0.47428378 1.074776 0.35785195
0.0072353375 -0.1283804 0.25747395 0.011857174 0.07645102 -0.06635315 0.4452756 0.6327349
0.027619986 0.007875538 0.02355753 0.065998085 -0.27165863 -0.018062608 0.00436216 0.26847818
-0.029630499 0.41569304 0.05642418 0.37810028 0.07888979 0.53589404 -0.07362991 0.69913447
-0.0001756843 0.2131042 0.3991675 0.39179036 0.6923499 0.40964755 -0.048590988 0.30483228
0.06541783 0.31556797 0.0232995 0.013291597 0.14682451 -0.024865808 0.22951539 0.8910466
-0.01079105 0.9435264 0.11667469 0.16110893 -0.035057627 -0.0075610513 -0.06343135 -0.046103466
0.21640632 0.13929631 0.3260907 0.6509957 0.01314007 -0.0882342 -0.040894635 -0.0117873335
0.2630412 0.49548388 0.015561085 0.45739087 0.13159354 -0.030961955 -0.046658117 0.2906985
-0.3175065 0.1727789 -0.11567695 0.44968143 -0.36094546 -0.052479938 -0.061506663 -0.008121534
0.09354341 0.097317696 -0.06223081 -0.004551721 0.55494297 0.011457752 0.006857006 -0.007698684
0.099827126 0.23955247 -0.09520003 -0.10547638 -0.014380725 0.26048172 0.63281024 0.50419676
0.049616035 0.036908034 0.9879415 0.4672714 0.22942637 0.7514483 -0.023783682 0.057419237
-0.07621599 0.29856205 -0.047300432 0.03576425 0.011564031 0.060268227 0.8834284 0.5708275
-0.04259684 0.059878077 0.53698874 0.16996151 0.30389392 0.06606297 0.026287457 0.28272417
0.016786387 0.58891195 -0.07257718 -0.10120136 0.280628 0.3832424 -0.7094288 -0.051160347
0.3378723 0.08966486 0.049243204 -0.099316515 0.46376604 0.6792164 1.0526992 0.31258798
00000000: 373a 15bc 8acd 533e 9c48 783a ba70 8b3d
00000010: fbb4 683d 3eca 3ebd 70a2 e23e cecf 3f3f
00000020: 94ef 3b3d 74cc 853e 4435 21bd 78ff c03c
00000030: b428 4dbe 0304 bc3c 1c12 493d 1d24 1b3e
00000040: dcc9 24bd 7f7f a33e 749f cd3e 6a71 e43e
00000050: 340b 8c3c 4dc7 8c3e f9ba 70bd 046f a23e
00000060: ccfc b5bc dd40 c53e b6bb af3e 9b8f 093f
00000070: 4565 4f3f 5abe c33e 87b4 b63c 7032 86be
00000080: 29be 403e 4d93 cb3e a6a6 df3c 8305 763d
00000090: 0c2e be3e b885 eb3b 1484 e43e 90b0 6b3f
000000a0: 6556 6bbd 7496 6a3f 2e86 103e 479d 123e
000000b0: 889f 093d af48 0ebd d412 e5bd cea2 cb3c
000000c0: 18c5 493e d96d cb3d 39ea b93e 7aca 2b3f
000000d0: a714 0a3e c0b1 afbd ccbc d9bc e206 c6bd
000000e0: 0560 6f3e 3483 bb3e 4191 0a3d f9c8 073f
000000f0: 24c1 943d 0527 43bd dec4 973b 00ab 623e
00000100: 0af2 083e d45a 483e 0511 20be 0dbd c53e
00000110: edd9 443d e805 edbc 7794 6d3d 07f8 933c
00000120: 1f36 f43d b3e7 2e3d 7383 03bd dc36 1c3d
00000130: 72c4 343f 92df a7bc ec8a 0a3d ca7e 873b
00000140: 74f6 18bd 684a 0b3f 648a cabd 5fef a33c
00000150: b78c bbbc 5199 173f 7c6d abbe e894 203f
00000160: e9c9 8ebd eba2 7f3d ca4a 843f c727 ee3e
00000170: 23e6 4d3c 6712 583f 1b34 833d 0fd3 0c3d
00000180: 4dbe e43c 38ba b33e a3db aa3c fd44 7d3c
00000190: f715 053d 353d adbc 4cdf 3a3f d3bc 033f
000001a0: 1247 103d dcae 093e 7ec2 013f 74d0 ae3e
000001b0: a9b5 903e e0c5 5a3d dd14 11bd bb4e eb3e
000001c0: 28f5 2cbd e7e6 483f 0642 993d 678e ee3c
000001d0: 111e a23e b8cf d53e 83e7 96be e549 6cbd
000001e0: eb00 c93e 19de 9fbc 23e1 5a3b bf88 d5bd
000001f0: cdd4 ae3e 53d5 f23e 4392 893f 5f38 b73e
00000200: 6916 ed3b 2776 03be a0d3 833e 9844 423c
00000210: 5a92 9c3d 29e4 87bd 2afb e33e eafa 213f
00000220: 4f43 e23c 6708 013c b9fb c03c 012a 873d
00000230: d716 8bbe 09f8 93bc 73f0 8e3b f975 893e
00000240: a9bb f2bc b8d5 d43e 0a1d 673d 5c96 c13e
00000250: f890 a13d 5a30 093f 47cb 96bd 7afa 323f
00000260: e537 38b9 fd37 5a3e af5f cc3e bf98 c83e
00000270: d83d 313f 53bd d13e 5807 47bd fa12 9c3e
00000280: c9f9 853d 2092 a13e 98de be3c 00c5 593c
00000290: 2a59 163e 61b3 cbbc 1506 6b3e a11b 643f
000002a0: f2cc 30bc f28a 713f 24f3 ee3d bdf9 243e
000002b0: 9698 0fbd b2c2 f7bb 4ce8 81bd fdd6 3cbd
000002c0: 9e99 5d3e b1a3 0e3e 5cf5 a63e a7a7 263f
000002d0: 7349 573c 22b4 b4bd 2281 27bd a91f 41bc
000002e0: 56ad 863e 10b0 fd3e ecf3 7e3c 232f ea3e
000002f0: 75c0 063e eda3 fdbc 951c 3fbd 6fd6 943e
00000300: 3690 a2be f4ec 303e 09e8 ecbd a53c e63e
00000310: d8cd b8be 34f5 56bd 69ee 7bbd 2f10 05bc
00000320: b093 bf3d 804e c73d bce5 7ebd 9a26 95bb
00000330: be10 0e3f 4cb9 3b3c bcb0 e03b 3e45 fcbb
00000340: 2a72 cc3d 3e4d 753e 3cf8 c2bd 0004 d8bd
00000350: 229d 6bbc dc5d 853e daff 213f 0a13 013f
00000360: 2f3a 4b3d e12c 173d bce9 7c3f 323e ef3e
00000370: bfee 6a3e ea5e 403f ffd5 c2bc 6f30 6b3d
00000380: 2117 9cbd 20dd 983e 19be 41bd 897d 123d
00000390: 1077 3d3c d1db 763d 5d28 623f c021 123f
000003a0: 067a 2ebd b742 753d 1878 093f 640a 2e3e
000003b0: fc97 9b3e 064c 873d cb58 d73c 39c1 903e
000003c0: 9b83 893c efc2 163f 58a3 94bd a942 cfbd
000003d0: 79ae 8f3e 5938 c43e 209d 35bf 838d 51bd
000003e0: 99fd ac3e 36a2 b73d 3eb3 493d 7566 cbbd
000003f0: be72 ed3e 20e1 2d3f d9be 863f 880b a03e

net.4.bias f4 [7]
0.78882504 0.7930103 0.791236 0.79247147 0.79375327 0.7931181 0.80174965
00000000: 70f0 493f b902 4b3f 718e 4a3f 69df 4a3f
00000010: 6a33 4b3f ca09 4b3f 773f 4d3f
